…
Batch: 3400: Loss: 1.0900
Batch: 3500: Loss: 1.1545
Batch: 3600: Loss: 1.0871
Model is saved as ./pointwise_ltr/models/pointwise_[128, 128, 128]_3_0.005_Adam.pt
0.8012997608296897 0.8021234968188957
Epoch: 5
Batch: 3700: Loss: 1.1398
Batch: 3800: Loss: 1.0778
Batch: 3900: Loss: 1.0327
Batch: 4000: Loss: 1.1196
Batch: 4100: Loss: 1.1136
Batch: 4200: Loss: 1.0978
Batch: 4300: Loss: 1.0924
Batch: 4400: Loss: 1.0312
Batch: 4500: Loss: 1.0764
Batch: 4600: Loss: 1.1072
0.8021234968188957 0.8019828219466678
Early stopping condition satistied, stopping training
Results are saved in the json_files folder
ModuleList(
  (0): Linear(in_features=501, out_features=128, bias=True)
  (1): Linear(in_features=128, out_features=128, bias=True)
  (2): Linear(in_features=128, out_features=128, bias=True)
  (3): Linear(in_features=128, out_features=5, bias=True)
)
Device: cpu
Epoch: 1
Batch: 0: Loss: 1.6187
Batch: 100: Loss: 1.3787
Batch: 200: Loss: 1.3508
Batch: 300: Loss: 1.3680
Batch: 400: Loss: 1.3463
Batch: 500: Loss: 1.3561
Batch: 600: Loss: 1.3346
Batch: 700: Loss: 1.3755
Batch: 800: Loss: 1.3354
Batch: 900: Loss: 1.3572
Epoch: 2
Batch: 1000: Loss: 1.3171
Batch: 1100: Loss: 1.3832
Batch: 1200: Loss: 1.3724
Batch: 1300: Loss: 1.3474
Batch: 1400: Loss: 1.3420
Batch: 1500: Loss: 1.3234
Batch: 1600: Loss: 1.3523
Batch: 1700: Loss: 1.3356
Batch: 1800: Loss: 1.3622
0.7609581384428697 0.7603010478768373
Early stopping condition satistied, stopping training
Results are saved in the json_files folder
ModuleList(
  (0): Linear(in_features=501, out_features=512, bias=True)
  (1): Linear(in_features=512, out_features=128, bias=True)
  (2): Linear(in_features=128, out_features=8, bias=True)
  (3): Linear(in_features=8, out_features=5, bias=True)
)
Device: cpu
Epoch: 1
Batch: 0: Loss: 1.6277
Batch: 100: Loss: 1.1985
Batch: 200: Loss: 1.1724
Batch: 300: Loss: 1.1319
Batch: 400: Loss: 1.1555
Batch: 500: Loss: 1.1445
Batch: 600: Loss: 1.1111
Batch: 700: Loss: 1.0981
Batch: 800: Loss: 1.1402
Batch: 900: Loss: 1.1069
Epoch: 2
Batch: 1000: Loss: 1.1228
Batch: 1100: Loss: 1.1611
Batch: 1200: Loss: 1.1827
Batch: 1300: Loss: 1.0980
…
Batch: 2400: Loss: 1.1705
Batch: 2500: Loss: 1.1705
Batch: 2600: Loss: 1.1040
Batch: 2700: Loss: 1.1178
0.7995480496646192 0.8019362112422176
Epoch: 4
Batch: 2800: Loss: 1.1012
Batch: 2900: Loss: 1.1352
Batch: 3000: Loss: 1.1461
Batch: 3100: Loss: 1.2378
Batch: 3200: Loss: 1.1363
Batch: 3300: Loss: 1.1514
Batch: 3400: Loss: 1.1218
Batch: 3500: Loss: 1.1815
Batch: 3600: Loss: 1.1190
Model is saved as ./pointwise_ltr/models/pointwise_[512, 128, 8]_3_0.005_Adam.pt
0.8019362112422176 0.8012125717621338
Early stopping condition satistied, stopping training
Results are saved in the json_files folder
ModuleList(
  (0): Linear(in_features=501, out_features=512, bias=True)
  (1): Linear(in_features=512, out_features=128, bias=True)
  (2): Linear(in_features=128, out_features=8, bias=True)
  (3): Linear(in_features=8, out_features=5, bias=True)
)
Device: cpu
Epoch: 1
Batch: 0: Loss: 1.6277
Batch: 100: Loss: 1.3316
Batch: 200: Loss: 1.3277
Batch: 300: Loss: 1.3046
Batch: 400: Loss: 1.3780
Batch: 500: Loss: 1.3695
Batch: 600: Loss: 1.3663
Batch: 700: Loss: 1.3419
Batch: 800: Loss: 1.3459
Batch: 900: Loss: 1.3412
Epoch: 2
Batch: 1000: Loss: 1.3342
Batch: 1100: Loss: 1.3821
Batch: 1200: Loss: 1.3732
Batch: 1300: Loss: 1.3553
Batch: 1400: Loss: 1.3715
Batch: 1500: Loss: 1.3674
Batch: 1600: Loss: 1.3492
Batch: 1700: Loss: 1.3523
Batch: 1800: Loss: 1.3575
0.7609581384428697 0.7603010478768373
Early stopping condition satistied, stopping training
Results are saved in the json_files folder
ModuleList(
  (0): Linear(in_features=501, out_features=256, bias=True)
  (1): Linear(in_features=256, out_features=10, bias=True)
  (2): Linear(in_features=10, out_features=5, bias=True)
)
Device: cpu
Epoch: 1
Batch: 0: Loss: 1.6590
Batch: 100: Loss: 1.1185
Batch: 200: Loss: 1.1388
Batch: 300: Loss: 1.1072
Batch: 400: Loss: 1.1679
Batch: 500: Loss: 1.1336
Batch: 600: Loss: 1.0758
Batch: 700: Loss: 1.1417
Batch: 800: Loss: 1.1292
Batch: 900: Loss: 1.1207
Epoch: 2
Batch: 1000: Loss: 1.1303
Batch: 1100: Loss: 1.0630
Batch: 1200: Loss: 1.0927
…
Batch: 5200: Loss: 1.1245
Batch: 5300: Loss: 1.1294
Batch: 5400: Loss: 1.1551
Batch: 5500: Loss: 1.1362
0.7957802939529962 0.797112946042516
Epoch: 7
Batch: 5600: Loss: 1.1250
Batch: 5700: Loss: 1.1514
Batch: 5800: Loss: 1.1587
Batch: 5900: Loss: 1.1237
Batch: 6000: Loss: 1.1142
Batch: 6100: Loss: 1.1424
Batch: 6200: Loss: 1.1968
Batch: 6300: Loss: 1.1156
Batch: 6400: Loss: 1.1483
Model is saved as ./pointwise_ltr/models/pointwise_[256]_6_0.05_Adam.pt
0.797112946042516 0.7938196728793151
Early stopping condition satistied, stopping training
Results are saved in the json_files folder
ModuleList(
  (0): Linear(in_features=501, out_features=512, bias=True)
  (1): Linear(in_features=512, out_features=512, bias=True)
  (2): Linear(in_features=512, out_features=512, bias=True)
  (3): Linear(in_features=512, out_features=512, bias=True)
  (4): Linear(in_features=512, out_features=5, bias=True)
)
Device: cpu
Epoch: 1
Batch: 0: Loss: 1.5949
Batch: 100: Loss: 1.1733
Batch: 200: Loss: 1.1135
Batch: 300: Loss: 1.0960
Batch: 400: Loss: 1.1494
Batch: 500: Loss: 1.1612
Batch: 600: Loss: 1.1144
Batch: 700: Loss: 1.1222
Batch: 800: Loss: 1.1192
Batch: 900: Loss: 1.0943
Epoch: 2
Batch: 1000: Loss: 1.0724
Batch: 1100: Loss: 1.1703
Batch: 1200: Loss: 1.1081
…
